…
[2021-03-18 12:12:53,711 INFO] 	* dec: 2820 match, 4777 missing, (37.12%)
[2021-03-18 12:12:53,711 INFO] 
Saving encoder embeddings as:
	* enc: ./ZFJ-Python-SO-Dataset/python.enc_embeddings.pt
[2021-03-18 12:12:54,236 INFO] 
Saving decoder embeddings as:
	* dec: ./ZFJ-Python-SO-Dataset/python.dec_embeddings.pt
[2021-03-18 12:12:54,493 INFO]  * src vocab size = 70002
[2021-03-18 12:12:54,493 INFO]  * tgt vocab size = 7597
[2021-03-18 12:12:54,496 INFO] Building model...
[2021-03-18 12:12:56,976 INFO] NMTModel(
  (encoder): RNNEncoder(
    (embeddings): Embeddings(
      (make_embedding): Sequential(
        (emb_luts): Elementwise(
          (0): Embedding(70002, 300, padding_idx=1)
        )
      )
    )
    (rnn): LSTM(300, 250, num_layers=2, bidirectional=True)
    (bridge): ModuleList(
      (0): Linear(in_features=500, out_features=500, bias=True)
      (1): Linear(in_features=500, out_features=500, bias=True)
    )
  )
  (decoder): InputFeedRNNDecoder(
    (embeddings): Embeddings(
      (make_embedding): Sequential(
        (emb_luts): Elementwise(
          (0): Embedding(7597, 300, padding_idx=1)
        )
      )
    )
    (dropout): Dropout(p=0.0, inplace=False)
    (rnn): StackedLSTM(
      (dropout): Dropout(p=0.0, inplace=False)
      (layers): ModuleList(
        (0): LSTMCell(800, 500)
        (1): LSTMCell(500, 500)
      )
    )
    (attn): GlobalAttention(
      (linear_context): Linear(in_features=500, out_features=500, bias=False)
      (linear_query): Linear(in_features=500, out_features=500, bias=True)
      (v): Linear(in_features=500, out_features=1, bias=False)
      (linear_out): Linear(in_features=1000, out_features=500, bias=True)
      (linear_cover): Linear(in_features=1, out_features=500, bias=False)
    )
  )
  (generator): CopyGenerator(
    (linear): Linear(in_features=500, out_features=7597, bias=True)
    (linear_copy): Linear(in_features=500, out_features=1, bias=True)
  )
)
[2021-03-18 12:12:56,977 INFO] encoder: 24109600
[2021-03-18 12:12:56,977 INFO] decoder: 11695698
[2021-03-18 12:12:56,977 INFO] * number of parameters: 35805298
[2021-03-18 12:12:56,979 INFO] Starting training on GPU: [0]
[2021-03-18 12:12:56,979 INFO] Start training loop and validate every 5000 steps...
[2021-03-18 12:12:56,979 INFO] python's transforms: TransformPipe()
…
